…
[2020-12-24 10:52:52,244] yolo.py->parse_model line:202 [INFO]
                 from  n    params  module                                  arguments                     
[2020-12-24 10:52:52,244] yolo.py->parse_model line:202 [INFO]
                 from  n    params  module                                  arguments                     
[2020-12-24 10:52:52,244] yolo.py->parse_model line:202 [INFO]
                 from  n    params  module                                  arguments                     
[2020-12-24 10:52:52,246] yolo.py->parse_model line:257 [INFO]  0                -1  1      3520  models.common.Focus                     [3, 32, 3]                    
[2020-12-24 10:52:52,246] yolo.py->parse_model line:257 [INFO]  0                -1  1      3520  models.common.Focus                     [3, 32, 3]                    
[2020-12-24 10:52:52,246] yolo.py->parse_model line:257 [INFO]  0                -1  1      3520  models.common.Focus                     [3, 32, 3]                    
[2020-12-24 10:52:52,246] yolo.py->parse_model line:257 [INFO]  0                -1  1      3520  models.common.Focus                     [3, 32, 3]                    
[2020-12-24 10:52:52,247] yolo.py->parse_model line:257 [INFO]  1                -1  1     18560  models.common.Conv                      [32, 64, 3, 2]                
[2020-12-24 10:52:52,247] yolo.py->parse_model line:257 [INFO]  1                -1  1     18560  models.common.Conv                      [32, 64, 3, 2]                
[2020-12-24 10:52:52,247] yolo.py->parse_model line:257 [INFO]  1                -1  1     18560  models.common.Conv                      [32, 64, 3, 2]                
[2020-12-24 10:52:52,247] yolo.py->parse_model line:257 [INFO]  1                -1  1     18560  models.common.Conv                      [32, 64, 3, 2]                
[2020-12-24 10:52:52,249] yolo.py->parse_model line:257 [INFO]  2                -1  1     19904  models.common.BottleneckCSP             [64, 64, 1]                   
[2020-12-24 10:52:52,249] yolo.py->parse_model line:257 [INFO]  2                -1  1     19904  models.common.BottleneckCSP             [64, 64, 1]                   
[2020-12-24 10:52:52,249] yolo.py->parse_model line:257 [INFO]  2                -1  1     19904  models.common.BottleneckCSP             [64, 64, 1]                   
[2020-12-24 10:52:52,249] yolo.py->parse_model line:257 [INFO]  2                -1  1     19904  models.common.BottleneckCSP             [64, 64, 1]                   
[2020-12-24 10:52:52,251] yolo.py->parse_model line:257 [INFO]  3                -1  1     73984  models.common.Conv                      [64, 128, 3, 2]               
[2020-12-24 10:52:52,251] yolo.py->parse_model line:257 [INFO]  3                -1  1     73984  models.common.Conv                      [64, 128, 3, 2]               
[2020-12-24 10:52:52,251] yolo.py->parse_model line:257 [INFO]  3                -1  1     73984  models.common.Conv                      [64, 128, 3, 2]               
[2020-12-24 10:52:52,251] yolo.py->parse_model line:257 [INFO]  3                -1  1     73984  models.common.Conv                      [64, 128, 3, 2]               
[2020-12-24 10:52:52,256] yolo.py->parse_model line:257 [INFO]  4                -1  1    161152  models.common.BottleneckCSP             [128, 128, 3]                 
[2020-12-24 10:52:52,256] yolo.py->parse_model line:257 [INFO]  4                -1  1    161152  models.common.BottleneckCSP             [128, 128, 3]                 
[2020-12-24 10:52:52,256] yolo.py->parse_model line:257 [INFO]  4                -1  1    161152  models.common.BottleneckCSP             [128, 128, 3]                 
[2020-12-24 10:52:52,256] yolo.py->parse_model line:257 [INFO]  4                -1  1    161152  models.common.BottleneckCSP             [128, 128, 3]                 
[2020-12-24 10:52:52,260] yolo.py->parse_model line:257 [INFO]  5                -1  1    295424  models.common.Conv                      [128, 256, 3, 2]              
[2020-12-24 10:52:52,260] yolo.py->parse_model line:257 [INFO]  5                -1  1    295424  models.common.Conv                      [128, 256, 3, 2]              
[2020-12-24 10:52:52,260] yolo.py->parse_model line:257 [INFO]  5                -1  1    295424  models.common.Conv                      [128, 256, 3, 2]              
[2020-12-24 10:52:52,260] yolo.py->parse_model line:257 [INFO]  5                -1  1    295424  models.common.Conv                      [128, 256, 3, 2]              
[2020-12-24 10:52:52,270] yolo.py->parse_model line:257 [INFO]  6                -1  1    641792  models.common.BottleneckCSP             [256, 256, 3]                 
[2020-12-24 10:52:52,270] yolo.py->parse_model line:257 [INFO]  6                -1  1    641792  models.common.BottleneckCSP             [256, 256, 3]                 
[2020-12-24 10:52:52,270] yolo.py->parse_model line:257 [INFO]  6                -1  1    641792  models.common.BottleneckCSP             [256, 256, 3]                 
[2020-12-24 10:52:52,270] yolo.py->parse_model line:257 [INFO]  6                -1  1    641792  models.common.BottleneckCSP             [256, 256, 3]                 
[2020-12-24 10:52:52,287] yolo.py->parse_model line:257 [INFO]  7                -1  1   1180672  models.common.Conv                      [256, 512, 3, 2]              
[2020-12-24 10:52:52,287] yolo.py->parse_model line:257 [INFO]  7                -1  1   1180672  models.common.Conv                      [256, 512, 3, 2]              
[2020-12-24 10:52:52,287] yolo.py->parse_model line:257 [INFO]  7                -1  1   1180672  models.common.Conv                      [256, 512, 3, 2]              
[2020-12-24 10:52:52,287] yolo.py->parse_model line:257 [INFO]  7                -1  1   1180672  models.common.Conv                      [256, 512, 3, 2]              
[2020-12-24 10:52:52,296] yolo.py->parse_model line:257 [INFO]  8                -1  1    656896  models.common.SPP                       [512, 512, [5, 9, 13]]        
[2020-12-24 10:52:52,296] yolo.py->parse_model line:257 [INFO]  8                -1  1    656896  models.common.SPP                       [512, 512, [5, 9, 13]]        
[2020-12-24 10:52:52,296] yolo.py->parse_model line:257 [INFO]  8                -1  1    656896  models.common.SPP                       [512, 512, [5, 9, 13]]        
[2020-12-24 10:52:52,296] yolo.py->parse_model line:257 [INFO]  8                -1  1    656896  models.common.SPP                       [512, 512, [5, 9, 13]]        
[2020-12-24 10:52:52,316] yolo.py->parse_model line:257 [INFO]  9                -1  1   1248768  models.common.BottleneckCSP             [512, 512, 1, False]          
[2020-12-24 10:52:52,316] yolo.py->parse_model line:257 [INFO]  9                -1  1   1248768  models.common.BottleneckCSP             [512, 512, 1, False]          
[2020-12-24 10:52:52,316] yolo.py->parse_model line:257 [INFO]  9                -1  1   1248768  models.common.BottleneckCSP             [512, 512, 1, False]          
[2020-12-24 10:52:52,316] yolo.py->parse_model line:257 [INFO]  9                -1  1   1248768  models.common.BottleneckCSP             [512, 512, 1, False]          
[2020-12-24 10:52:52,318] yolo.py->parse_model line:257 [INFO] 10                -1  1    131584  models.common.Conv                      [512, 256, 1, 1]              
[2020-12-24 10:52:52,318] yolo.py->parse_model line:257 [INFO] 10                -1  1    131584  models.common.Conv                      [512, 256, 1, 1]              
[2020-12-24 10:52:52,318] yolo.py->parse_model line:257 [INFO] 10                -1  1    131584  models.common.Conv                      [512, 256, 1, 1]              
[2020-12-24 10:52:52,318] yolo.py->parse_model line:257 [INFO] 10                -1  1    131584  models.common.Conv                      [512, 256, 1, 1]              
[2020-12-24 10:52:52,319] yolo.py->parse_model line:257 [INFO] 11                -1  1         0  torch.nn.modules.upsampling.Upsample    [None, 2, 'nearest']          
[2020-12-24 10:52:52,319] yolo.py->parse_model line:257 [INFO] 11                -1  1         0  torch.nn.modules.upsampling.Upsample    [None, 2, 'nearest']          
[2020-12-24 10:52:52,319] yolo.py->parse_model line:257 [INFO] 11                -1  1         0  torch.nn.modules.upsampling.Upsample    [None, 2, 'nearest']          
[2020-12-24 10:52:52,319] yolo.py->parse_model line:257 [INFO] 11                -1  1         0  torch.nn.modules.upsampling.Upsample    [None, 2, 'nearest']          
[2020-12-24 10:52:52,319] yolo.py->parse_model line:257 [INFO] 12           [-1, 6]  1         0  models.common.Concat                    [1]                           
[2020-12-24 10:52:52,319] yolo.py->parse_model line:257 [INFO] 12           [-1, 6]  1         0  models.common.Concat                    [1]                           
[2020-12-24 10:52:52,319] yolo.py->parse_model line:257 [INFO] 12           [-1, 6]  1         0  models.common.Concat                    [1]                           
[2020-12-24 10:52:52,319] yolo.py->parse_model line:257 [INFO] 12           [-1, 6]  1         0  models.common.Concat                    [1]                           
[2020-12-24 10:52:52,325] yolo.py->parse_model line:257 [INFO] 13                -1  1    378624  models.common.BottleneckCSP             [512, 256, 1, False]          
[2020-12-24 10:52:52,325] yolo.py->parse_model line:257 [INFO] 13                -1  1    378624  models.common.BottleneckCSP             [512, 256, 1, False]          
[2020-12-24 10:52:52,325] yolo.py->parse_model line:257 [INFO] 13                -1  1    378624  models.common.BottleneckCSP             [512, 256, 1, False]          
[2020-12-24 10:52:52,325] yolo.py->parse_model line:257 [INFO] 13                -1  1    378624  models.common.BottleneckCSP             [512, 256, 1, False]          
[2020-12-24 10:52:52,326] yolo.py->parse_model line:257 [INFO] 14                -1  1     33024  models.common.Conv                      [256, 128, 1, 1]              
[2020-12-24 10:52:52,326] yolo.py->parse_model line:257 [INFO] 14                -1  1     33024  models.common.Conv                      [256, 128, 1, 1]              
[2020-12-24 10:52:52,326] yolo.py->parse_model line:257 [INFO] 14                -1  1     33024  models.common.Conv                      [256, 128, 1, 1]              
[2020-12-24 10:52:52,326] yolo.py->parse_model line:257 [INFO] 14                -1  1     33024  models.common.Conv                      [256, 128, 1, 1]              
[2020-12-24 10:52:52,326] yolo.py->parse_model line:257 [INFO] 15                -1  1         0  torch.nn.modules.upsampling.Upsample    [None, 2, 'nearest']          
[2020-12-24 10:52:52,326] yolo.py->parse_model line:257 [INFO] 15                -1  1         0  torch.nn.modules.upsampling.Upsample    [None, 2, 'nearest']          
[2020-12-24 10:52:52,326] yolo.py->parse_model line:257 [INFO] 15                -1  1         0  torch.nn.modules.upsampling.Upsample    [None, 2, 'nearest']          
[2020-12-24 10:52:52,326] yolo.py->parse_model line:257 [INFO] 15                -1  1         0  torch.nn.modules.upsampling.Upsample    [None, 2, 'nearest']          
[2020-12-24 10:52:52,327] yolo.py->parse_model line:257 [INFO] 16           [-1, 4]  1         0  models.common.Concat                    [1]                           
[2020-12-24 10:52:52,327] yolo.py->parse_model line:257 [INFO] 16           [-1, 4]  1         0  models.common.Concat                    [1]                           
[2020-12-24 10:52:52,327] yolo.py->parse_model line:257 [INFO] 16           [-1, 4]  1         0  models.common.Concat                    [1]                           
[2020-12-24 10:52:52,327] yolo.py->parse_model line:257 [INFO] 16           [-1, 4]  1         0  models.common.Concat                    [1]                           
[2020-12-24 10:52:52,330] yolo.py->parse_model line:257 [INFO] 17                -1  1     95104  models.common.BottleneckCSP             [256, 128, 1, False]          
[2020-12-24 10:52:52,330] yolo.py->parse_model line:257 [INFO] 17                -1  1     95104  models.common.BottleneckCSP             [256, 128, 1, False]          
[2020-12-24 10:52:52,330] yolo.py->parse_model line:257 [INFO] 17                -1  1     95104  models.common.BottleneckCSP             [256, 128, 1, False]          
[2020-12-24 10:52:52,330] yolo.py->parse_model line:257 [INFO] 17                -1  1     95104  models.common.BottleneckCSP             [256, 128, 1, False]          
[2020-12-24 10:52:52,332] yolo.py->parse_model line:257 [INFO] 18                -1  1    147712  models.common.Conv                      [128, 128, 3, 2]              
[2020-12-24 10:52:52,332] yolo.py->parse_model line:257 [INFO] 18                -1  1    147712  models.common.Conv                      [128, 128, 3, 2]              
[2020-12-24 10:52:52,332] yolo.py->parse_model line:257 [INFO] 18                -1  1    147712  models.common.Conv                      [128, 128, 3, 2]              
[2020-12-24 10:52:52,332] yolo.py->parse_model line:257 [INFO] 18                -1  1    147712  models.common.Conv                      [128, 128, 3, 2]              
[2020-12-24 10:52:52,332] yolo.py->parse_model line:257 [INFO] 19          [-1, 14]  1         0  models.common.Concat                    [1]                           
[2020-12-24 10:52:52,332] yolo.py->parse_model line:257 [INFO] 19          [-1, 14]  1         0  models.common.Concat                    [1]                           
[2020-12-24 10:52:52,332] yolo.py->parse_model line:257 [INFO] 19          [-1, 14]  1         0  models.common.Concat                    [1]                           
[2020-12-24 10:52:52,332] yolo.py->parse_model line:257 [INFO] 19          [-1, 14]  1         0  models.common.Concat                    [1]                           
[2020-12-24 10:52:52,338] yolo.py->parse_model line:257 [INFO] 20                -1  1    313088  models.common.BottleneckCSP             [256, 256, 1, False]          
[2020-12-24 10:52:52,338] yolo.py->parse_model line:257 [INFO] 20                -1  1    313088  models.common.BottleneckCSP             [256, 256, 1, False]          
[2020-12-24 10:52:52,338] yolo.py->parse_model line:257 [INFO] 20                -1  1    313088  models.common.BottleneckCSP             [256, 256, 1, False]          
[2020-12-24 10:52:52,338] yolo.py->parse_model line:257 [INFO] 20                -1  1    313088  models.common.BottleneckCSP             [256, 256, 1, False]          
[2020-12-24 10:52:52,344] yolo.py->parse_model line:257 [INFO] 21                -1  1    590336  models.common.Conv                      [256, 256, 3, 2]              
[2020-12-24 10:52:52,344] yolo.py->parse_model line:257 [INFO] 21                -1  1    590336  models.common.Conv                      [256, 256, 3, 2]              
[2020-12-24 10:52:52,344] yolo.py->parse_model line:257 [INFO] 21                -1  1    590336  models.common.Conv                      [256, 256, 3, 2]              
[2020-12-24 10:52:52,344] yolo.py->parse_model line:257 [INFO] 21                -1  1    590336  models.common.Conv                      [256, 256, 3, 2]              
[2020-12-24 10:52:52,345] yolo.py->parse_model line:257 [INFO] 22          [-1, 10]  1         0  models.common.Concat                    [1]                           
[2020-12-24 10:52:52,345] yolo.py->parse_model line:257 [INFO] 22          [-1, 10]  1         0  models.common.Concat                    [1]                           
[2020-12-24 10:52:52,345] yolo.py->parse_model line:257 [INFO] 22          [-1, 10]  1         0  models.common.Concat                    [1]                           
[2020-12-24 10:52:52,345] yolo.py->parse_model line:257 [INFO] 22          [-1, 10]  1         0  models.common.Concat                    [1]                           
[2020-12-24 10:52:52,360] yolo.py->parse_model line:257 [INFO] 23                -1  1   1248768  models.common.BottleneckCSP             [512, 512, 1, False]          
[2020-12-24 10:52:52,360] yolo.py->parse_model line:257 [INFO] 23                -1  1   1248768  models.common.BottleneckCSP             [512, 512, 1, False]          
[2020-12-24 10:52:52,360] yolo.py->parse_model line:257 [INFO] 23                -1  1   1248768  models.common.BottleneckCSP             [512, 512, 1, False]          
[2020-12-24 10:52:52,360] yolo.py->parse_model line:257 [INFO] 23                -1  1   1248768  models.common.BottleneckCSP             [512, 512, 1, False]          
[2020-12-24 10:52:52,364] yolo.py->parse_model line:257 [INFO] 24      [17, 20, 23]  1    229245  models.yolo.Detect                      [80, [[10, 13, 16, 30, 33, 23], [30, 61, 62, 45, 59, 119], [116, 90, 156, 198, 373, 326]], [128, 256, 512]]
[2020-12-24 10:52:52,364] yolo.py->parse_model line:257 [INFO] 24      [17, 20, 23]  1    229245  models.yolo.Detect                      [80, [[10, 13, 16, 30, 33, 23], [30, 61, 62, 45, 59, 119], [116, 90, 156, 198, 373, 326]], [128, 256, 512]]
…
[2020-12-24 10:56:41,388] yolo.py->parse_model line:204 [INFO]
                 from  n    params  module                                  arguments                     
[2020-12-24 10:56:41,388] yolo.py->parse_model line:204 [INFO]
                 from  n    params  module                                  arguments                     
[2020-12-24 10:56:41,388] yolo.py->parse_model line:204 [INFO]
                 from  n    params  module                                  arguments                     
[2020-12-24 10:56:41,389] yolo.py->parse_model line:259 [INFO]  0                -1  1      3520  yolov5.models.common.Focus              [3, 32, 3]                    
[2020-12-24 10:56:41,389] yolo.py->parse_model line:259 [INFO]  0                -1  1      3520  yolov5.models.common.Focus              [3, 32, 3]                    
[2020-12-24 10:56:41,389] yolo.py->parse_model line:259 [INFO]  0                -1  1      3520  yolov5.models.common.Focus              [3, 32, 3]                    
[2020-12-24 10:56:41,389] yolo.py->parse_model line:259 [INFO]  0                -1  1      3520  yolov5.models.common.Focus              [3, 32, 3]                    
[2020-12-24 10:56:41,390] yolo.py->parse_model line:259 [INFO]  1                -1  1     18560  yolov5.models.common.Conv               [32, 64, 3, 2]                
[2020-12-24 10:56:41,390] yolo.py->parse_model line:259 [INFO]  1                -1  1     18560  yolov5.models.common.Conv               [32, 64, 3, 2]                
[2020-12-24 10:56:41,390] yolo.py->parse_model line:259 [INFO]  1                -1  1     18560  yolov5.models.common.Conv               [32, 64, 3, 2]                
[2020-12-24 10:56:41,390] yolo.py->parse_model line:259 [INFO]  1                -1  1     18560  yolov5.models.common.Conv               [32, 64, 3, 2]                
[2020-12-24 10:56:41,393] yolo.py->parse_model line:259 [INFO]  2                -1  1     19904  yolov5.models.common.BottleneckCSP      [64, 64, 1]                   
[2020-12-24 10:56:41,393] yolo.py->parse_model line:259 [INFO]  2                -1  1     19904  yolov5.models.common.BottleneckCSP      [64, 64, 1]                   
[2020-12-24 10:56:41,393] yolo.py->parse_model line:259 [INFO]  2                -1  1     19904  yolov5.models.common.BottleneckCSP      [64, 64, 1]                   
[2020-12-24 10:56:41,393] yolo.py->parse_model line:259 [INFO]  2                -1  1     19904  yolov5.models.common.BottleneckCSP      [64, 64, 1]                   
[2020-12-24 10:56:41,394] yolo.py->parse_model line:259 [INFO]  3                -1  1     73984  yolov5.models.common.Conv               [64, 128, 3, 2]               
[2020-12-24 10:56:41,394] yolo.py->parse_model line:259 [INFO]  3                -1  1     73984  yolov5.models.common.Conv               [64, 128, 3, 2]               
[2020-12-24 10:56:41,394] yolo.py->parse_model line:259 [INFO]  3                -1  1     73984  yolov5.models.common.Conv               [64, 128, 3, 2]               
[2020-12-24 10:56:41,394] yolo.py->parse_model line:259 [INFO]  3                -1  1     73984  yolov5.models.common.Conv               [64, 128, 3, 2]               
[2020-12-24 10:56:41,401] yolo.py->parse_model line:259 [INFO]  4                -1  1    161152  yolov5.models.common.BottleneckCSP      [128, 128, 3]                 
[2020-12-24 10:56:41,401] yolo.py->parse_model line:259 [INFO]  4                -1  1    161152  yolov5.models.common.BottleneckCSP      [128, 128, 3]                 
[2020-12-24 10:56:41,401] yolo.py->parse_model line:259 [INFO]  4                -1  1    161152  yolov5.models.common.BottleneckCSP      [128, 128, 3]                 
[2020-12-24 10:56:41,401] yolo.py->parse_model line:259 [INFO]  4                -1  1    161152  yolov5.models.common.BottleneckCSP      [128, 128, 3]                 
[2020-12-24 10:56:41,404] yolo.py->parse_model line:259 [INFO]  5                -1  1    295424  yolov5.models.common.Conv               [128, 256, 3, 2]              
[2020-12-24 10:56:41,404] yolo.py->parse_model line:259 [INFO]  5                -1  1    295424  yolov5.models.common.Conv               [128, 256, 3, 2]              
[2020-12-24 10:56:41,404] yolo.py->parse_model line:259 [INFO]  5                -1  1    295424  yolov5.models.common.Conv               [128, 256, 3, 2]              
[2020-12-24 10:56:41,404] yolo.py->parse_model line:259 [INFO]  5                -1  1    295424  yolov5.models.common.Conv               [128, 256, 3, 2]              
[2020-12-24 10:56:41,416] yolo.py->parse_model line:259 [INFO]  6                -1  1    641792  yolov5.models.common.BottleneckCSP      [256, 256, 3]                 
[2020-12-24 10:56:41,416] yolo.py->parse_model line:259 [INFO]  6                -1  1    641792  yolov5.models.common.BottleneckCSP      [256, 256, 3]                 
[2020-12-24 10:56:41,416] yolo.py->parse_model line:259 [INFO]  6                -1  1    641792  yolov5.models.common.BottleneckCSP      [256, 256, 3]                 
[2020-12-24 10:56:41,416] yolo.py->parse_model line:259 [INFO]  6                -1  1    641792  yolov5.models.common.BottleneckCSP      [256, 256, 3]                 
[2020-12-24 10:56:41,429] yolo.py->parse_model line:259 [INFO]  7                -1  1   1180672  yolov5.models.common.Conv               [256, 512, 3, 2]              
[2020-12-24 10:56:41,429] yolo.py->parse_model line:259 [INFO]  7                -1  1   1180672  yolov5.models.common.Conv               [256, 512, 3, 2]              
[2020-12-24 10:56:41,429] yolo.py->parse_model line:259 [INFO]  7                -1  1   1180672  yolov5.models.common.Conv               [256, 512, 3, 2]              
[2020-12-24 10:56:41,429] yolo.py->parse_model line:259 [INFO]  7                -1  1   1180672  yolov5.models.common.Conv               [256, 512, 3, 2]              
[2020-12-24 10:56:41,437] yolo.py->parse_model line:259 [INFO]  8                -1  1    656896  yolov5.models.common.SPP                [512, 512, [5, 9, 13]]        
[2020-12-24 10:56:41,437] yolo.py->parse_model line:259 [INFO]  8                -1  1    656896  yolov5.models.common.SPP                [512, 512, [5, 9, 13]]        
[2020-12-24 10:56:41,437] yolo.py->parse_model line:259 [INFO]  8                -1  1    656896  yolov5.models.common.SPP                [512, 512, [5, 9, 13]]        
[2020-12-24 10:56:41,437] yolo.py->parse_model line:259 [INFO]  8                -1  1    656896  yolov5.models.common.SPP                [512, 512, [5, 9, 13]]        
[2020-12-24 10:56:41,459] yolo.py->parse_model line:259 [INFO]  9                -1  1   1248768  yolov5.models.common.BottleneckCSP      [512, 512, 1, False]          
[2020-12-24 10:56:41,459] yolo.py->parse_model line:259 [INFO]  9                -1  1   1248768  yolov5.models.common.BottleneckCSP      [512, 512, 1, False]          
[2020-12-24 10:56:41,459] yolo.py->parse_model line:259 [INFO]  9                -1  1   1248768  yolov5.models.common.BottleneckCSP      [512, 512, 1, False]          
[2020-12-24 10:56:41,459] yolo.py->parse_model line:259 [INFO]  9                -1  1   1248768  yolov5.models.common.BottleneckCSP      [512, 512, 1, False]          
[2020-12-24 10:56:41,462] yolo.py->parse_model line:259 [INFO] 10                -1  1    131584  yolov5.models.common.Conv               [512, 256, 1, 1]              
[2020-12-24 10:56:41,462] yolo.py->parse_model line:259 [INFO] 10                -1  1    131584  yolov5.models.common.Conv               [512, 256, 1, 1]              
[2020-12-24 10:56:41,462] yolo.py->parse_model line:259 [INFO] 10                -1  1    131584  yolov5.models.common.Conv               [512, 256, 1, 1]              
[2020-12-24 10:56:41,462] yolo.py->parse_model line:259 [INFO] 10                -1  1    131584  yolov5.models.common.Conv               [512, 256, 1, 1]              
[2020-12-24 10:56:41,462] yolo.py->parse_model line:259 [INFO] 11                -1  1         0  torch.nn.modules.upsampling.Upsample    [None, 2, 'nearest']          
[2020-12-24 10:56:41,462] yolo.py->parse_model line:259 [INFO] 11                -1  1         0  torch.nn.modules.upsampling.Upsample    [None, 2, 'nearest']          
[2020-12-24 10:56:41,462] yolo.py->parse_model line:259 [INFO] 11                -1  1         0  torch.nn.modules.upsampling.Upsample    [None, 2, 'nearest']          
[2020-12-24 10:56:41,462] yolo.py->parse_model line:259 [INFO] 11                -1  1         0  torch.nn.modules.upsampling.Upsample    [None, 2, 'nearest']          
[2020-12-24 10:56:41,462] yolo.py->parse_model line:259 [INFO] 12           [-1, 6]  1         0  yolov5.models.common.Concat             [1]                           
[2020-12-24 10:56:41,462] yolo.py->parse_model line:259 [INFO] 12           [-1, 6]  1         0  yolov5.models.common.Concat             [1]                           
[2020-12-24 10:56:41,462] yolo.py->parse_model line:259 [INFO] 12           [-1, 6]  1         0  yolov5.models.common.Concat             [1]                           
[2020-12-24 10:56:41,462] yolo.py->parse_model line:259 [INFO] 12           [-1, 6]  1         0  yolov5.models.common.Concat             [1]                           
[2020-12-24 10:56:41,468] yolo.py->parse_model line:259 [INFO] 13                -1  1    378624  yolov5.models.common.BottleneckCSP      [512, 256, 1, False]          
[2020-12-24 10:56:41,468] yolo.py->parse_model line:259 [INFO] 13                -1  1    378624  yolov5.models.common.BottleneckCSP      [512, 256, 1, False]          
[2020-12-24 10:56:41,468] yolo.py->parse_model line:259 [INFO] 13                -1  1    378624  yolov5.models.common.BottleneckCSP      [512, 256, 1, False]          
[2020-12-24 10:56:41,468] yolo.py->parse_model line:259 [INFO] 13                -1  1    378624  yolov5.models.common.BottleneckCSP      [512, 256, 1, False]          
[2020-12-24 10:56:41,469] yolo.py->parse_model line:259 [INFO] 14                -1  1     33024  yolov5.models.common.Conv               [256, 128, 1, 1]              
[2020-12-24 10:56:41,469] yolo.py->parse_model line:259 [INFO] 14                -1  1     33024  yolov5.models.common.Conv               [256, 128, 1, 1]              
[2020-12-24 10:56:41,469] yolo.py->parse_model line:259 [INFO] 14                -1  1     33024  yolov5.models.common.Conv               [256, 128, 1, 1]              
[2020-12-24 10:56:41,469] yolo.py->parse_model line:259 [INFO] 14                -1  1     33024  yolov5.models.common.Conv               [256, 128, 1, 1]              
[2020-12-24 10:56:41,470] yolo.py->parse_model line:259 [INFO] 15                -1  1         0  torch.nn.modules.upsampling.Upsample    [None, 2, 'nearest']          
[2020-12-24 10:56:41,470] yolo.py->parse_model line:259 [INFO] 15                -1  1         0  torch.nn.modules.upsampling.Upsample    [None, 2, 'nearest']          
[2020-12-24 10:56:41,470] yolo.py->parse_model line:259 [INFO] 15                -1  1         0  torch.nn.modules.upsampling.Upsample    [None, 2, 'nearest']          
[2020-12-24 10:56:41,470] yolo.py->parse_model line:259 [INFO] 15                -1  1         0  torch.nn.modules.upsampling.Upsample    [None, 2, 'nearest']          
[2020-12-24 10:56:41,470] yolo.py->parse_model line:259 [INFO] 16           [-1, 4]  1         0  yolov5.models.common.Concat             [1]                           
[2020-12-24 10:56:41,470] yolo.py->parse_model line:259 [INFO] 16           [-1, 4]  1         0  yolov5.models.common.Concat             [1]                           
[2020-12-24 10:56:41,470] yolo.py->parse_model line:259 [INFO] 16           [-1, 4]  1         0  yolov5.models.common.Concat             [1]                           
[2020-12-24 10:56:41,470] yolo.py->parse_model line:259 [INFO] 16           [-1, 4]  1         0  yolov5.models.common.Concat             [1]                           
[2020-12-24 10:56:41,473] yolo.py->parse_model line:259 [INFO] 17                -1  1     95104  yolov5.models.common.BottleneckCSP      [256, 128, 1, False]          
[2020-12-24 10:56:41,473] yolo.py->parse_model line:259 [INFO] 17                -1  1     95104  yolov5.models.common.BottleneckCSP      [256, 128, 1, False]          
[2020-12-24 10:56:41,473] yolo.py->parse_model line:259 [INFO] 17                -1  1     95104  yolov5.models.common.BottleneckCSP      [256, 128, 1, False]          
[2020-12-24 10:56:41,473] yolo.py->parse_model line:259 [INFO] 17                -1  1     95104  yolov5.models.common.BottleneckCSP      [256, 128, 1, False]          
[2020-12-24 10:56:41,476] yolo.py->parse_model line:259 [INFO] 18                -1  1    147712  yolov5.models.common.Conv               [128, 128, 3, 2]              
[2020-12-24 10:56:41,476] yolo.py->parse_model line:259 [INFO] 18                -1  1    147712  yolov5.models.common.Conv               [128, 128, 3, 2]              
[2020-12-24 10:56:41,476] yolo.py->parse_model line:259 [INFO] 18                -1  1    147712  yolov5.models.common.Conv               [128, 128, 3, 2]              
[2020-12-24 10:56:41,476] yolo.py->parse_model line:259 [INFO] 18                -1  1    147712  yolov5.models.common.Conv               [128, 128, 3, 2]              
[2020-12-24 10:56:41,476] yolo.py->parse_model line:259 [INFO] 19          [-1, 14]  1         0  yolov5.models.common.Concat             [1]                           
[2020-12-24 10:56:41,476] yolo.py->parse_model line:259 [INFO] 19          [-1, 14]  1         0  yolov5.models.common.Concat             [1]                           
[2020-12-24 10:56:41,476] yolo.py->parse_model line:259 [INFO] 19          [-1, 14]  1         0  yolov5.models.common.Concat             [1]                           
[2020-12-24 10:56:41,476] yolo.py->parse_model line:259 [INFO] 19          [-1, 14]  1         0  yolov5.models.common.Concat             [1]                           
[2020-12-24 10:56:41,481] yolo.py->parse_model line:259 [INFO] 20                -1  1    313088  yolov5.models.common.BottleneckCSP      [256, 256, 1, False]          
[2020-12-24 10:56:41,481] yolo.py->parse_model line:259 [INFO] 20                -1  1    313088  yolov5.models.common.BottleneckCSP      [256, 256, 1, False]          
[2020-12-24 10:56:41,481] yolo.py->parse_model line:259 [INFO] 20                -1  1    313088  yolov5.models.common.BottleneckCSP      [256, 256, 1, False]          
[2020-12-24 10:56:41,481] yolo.py->parse_model line:259 [INFO] 20                -1  1    313088  yolov5.models.common.BottleneckCSP      [256, 256, 1, False]          
[2020-12-24 10:56:41,490] yolo.py->parse_model line:259 [INFO] 21                -1  1    590336  yolov5.models.common.Conv               [256, 256, 3, 2]              
[2020-12-24 10:56:41,490] yolo.py->parse_model line:259 [INFO] 21                -1  1    590336  yolov5.models.common.Conv               [256, 256, 3, 2]              
[2020-12-24 10:56:41,490] yolo.py->parse_model line:259 [INFO] 21                -1  1    590336  yolov5.models.common.Conv               [256, 256, 3, 2]              
[2020-12-24 10:56:41,490] yolo.py->parse_model line:259 [INFO] 21                -1  1    590336  yolov5.models.common.Conv               [256, 256, 3, 2]              
[2020-12-24 10:56:41,490] yolo.py->parse_model line:259 [INFO] 22          [-1, 10]  1         0  yolov5.models.common.Concat             [1]                           
[2020-12-24 10:56:41,490] yolo.py->parse_model line:259 [INFO] 22          [-1, 10]  1         0  yolov5.models.common.Concat             [1]                           
[2020-12-24 10:56:41,490] yolo.py->parse_model line:259 [INFO] 22          [-1, 10]  1         0  yolov5.models.common.Concat             [1]                           
[2020-12-24 10:56:41,490] yolo.py->parse_model line:259 [INFO] 22          [-1, 10]  1         0  yolov5.models.common.Concat             [1]                           
[2020-12-24 10:56:41,503] yolo.py->parse_model line:259 [INFO] 23                -1  1   1248768  yolov5.models.common.BottleneckCSP      [512, 512, 1, False]          
[2020-12-24 10:56:41,503] yolo.py->parse_model line:259 [INFO] 23                -1  1   1248768  yolov5.models.common.BottleneckCSP      [512, 512, 1, False]          
[2020-12-24 10:56:41,503] yolo.py->parse_model line:259 [INFO] 23                -1  1   1248768  yolov5.models.common.BottleneckCSP      [512, 512, 1, False]          
[2020-12-24 10:56:41,503] yolo.py->parse_model line:259 [INFO] 23                -1  1   1248768  yolov5.models.common.BottleneckCSP      [512, 512, 1, False]          
[2020-12-24 10:56:41,506] yolo.py->parse_model line:259 [INFO] 24      [17, 20, 23]  1    229245  models.yolo.Detect                      [80, [[10, 13, 16, 30, 33, 23], [30, 61, 62, 45, 59, 119], [116, 90, 156, 198, 373, 326]], [128, 256, 512]]
[2020-12-24 10:56:41,506] yolo.py->parse_model line:259 [INFO] 24      [17, 20, 23]  1    229245  models.yolo.Detect                      [80, [[10, 13, 16, 30, 33, 23], [30, 61, 62, 45, 59, 119], [116, 90, 156, 198, 373, 326]], [128, 256, 512]]
…
